Tensorflow version: 2.7.0
3995 angry images
436 disgust images
4097 fear images
7215 happy images
4965 neutral images
4830 sad images
3171 surprise images
Found 28709 images belonging to 7 classes.
Found 7178 images belonging to 7 classes.
Model: "sequential"
_________________________________________________________________
 Layer (type)                Output Shape              Param #   
=================================================================
 conv2d (Conv2D)             (None, 48, 48, 32)        320       
                                                                 
 batch_normalization (BatchN  (None, 48, 48, 32)       128       
 ormalization)                                                   
                                                                 
 activation (Activation)     (None, 48, 48, 32)        0         
                                                                 
 max_pooling2d (MaxPooling2D  (None, 24, 24, 32)       0         
 )                                                               
                                                                 
 dropout (Dropout)           (None, 24, 24, 32)        0         
                                                                 
 conv2d_1 (Conv2D)           (None, 24, 24, 64)        51264     
                                                                 
 batch_normalization_1 (Batc  (None, 24, 24, 64)       256       
 hNormalization)                                                 
                                                                 
 activation_1 (Activation)   (None, 24, 24, 64)        0         
                                                                 
 max_pooling2d_1 (MaxPooling  (None, 12, 12, 64)       0         
 2D)                                                             
                                                                 
 dropout_1 (Dropout)         (None, 12, 12, 64)        0         
                                                                 
 conv2d_2 (Conv2D)           (None, 12, 12, 128)       73856     
                                                                 
 batch_normalization_2 (Batc  (None, 12, 12, 128)      512       
 hNormalization)                                                 
                                                                 
 activation_2 (Activation)   (None, 12, 12, 128)       0         
                                                                 
 max_pooling2d_2 (MaxPooling  (None, 6, 6, 128)        0         
 2D)                                                             
                                                                 
 dropout_2 (Dropout)         (None, 6, 6, 128)         0         
                                                                 
 conv2d_3 (Conv2D)           (None, 6, 6, 512)         590336    
                                                                 
 batch_normalization_3 (Batc  (None, 6, 6, 512)        2048      
 hNormalization)                                                 
                                                                 
 activation_3 (Activation)   (None, 6, 6, 512)         0         
                                                                 
 max_pooling2d_3 (MaxPooling  (None, 3, 3, 512)        0         
 2D)                                                             
                                                                 
 dropout_3 (Dropout)         (None, 3, 3, 512)         0         
                                                                 
 flatten (Flatten)           (None, 4608)              0         
                                                                 
 dense (Dense)               (None, 256)               1179904   
                                                                 
 batch_normalization_4 (Batc  (None, 256)              1024      
 hNormalization)                                                 
                                                                 
 activation_4 (Activation)   (None, 256)               0         
                                                                 
 dropout_4 (Dropout)         (None, 256)               0         
                                                                 
 dense_1 (Dense)             (None, 512)               131584    
                                                                 
 batch_normalization_5 (Batc  (None, 512)              2048      
 hNormalization)                                                 
                                                                 
 activation_5 (Activation)   (None, 512)               0         
                                                                 
 dropout_5 (Dropout)         (None, 512)               0         
                                                                 
 dense_2 (Dense)             (None, 7)                 3591      
                                                                 
=================================================================
Total params: 2,036,871
Trainable params: 2,033,863
Non-trainable params: 3,008
_________________________________________________________________
Epoch 1/100

  1/448 [..............................] - ETA: 29:10 - loss: 2.4435 - accuracy: 0.0781
  2/448 [..............................] - ETA: 2:42 - loss: 2.4664 - accuracy: 0.0990 
…
